lstm_model.pth (torch, 983714 bytes, 10 tensors)

lstm.weight_ih_l0 f4 [512, 90]
000000 b9 f1 c3 3d 74 84 22 bd d0 7d 85 3b a9 9e bd 3d
       0.09567589 -0.0396771 0.004073836 0.09258778
000010 38 6f 93 bc a6 e2 b1 bd f0 c7 af bd d4 2c 98 bc
       -0.01799737 -0.08685808 -0.08583057 -0.018576063
000020 b4 16 93 bd 48 a6 68 3c f0 0b 5c 3c a2 a2 3f 3d
       -0.07182065 0.014199801 0.0134305805 0.046785958
000030 b7 e5 7a bd 70 f0 b8 bc e3 19 c4 bd c0 e1 03 bd
       -0.06125423 -0.022575587 -0.0957525 -0.032197714
000040 60 e3 58 bd 40 86 f2 3a f4 8f b7 bc 00 57 7c ba
       -0.052951217 0.0018503144 -0.02240751 -0.0009626001
000050 cc 42 a0 bc a8 7d b5 bc a0 87 de 3b 8a aa 97 bd
       -0.019563101 -0.022154644 0.00679107 -0.074055746
000060 93 63 a0 bd 0c bb c7 bc 34 28 d3 bc 79 91 c0 3d
       -0.07831492 -0.024381183 -0.025776006 0.09402747
000070 40 95 a4 bb 20 1e 0c bc 2e 07 21 3d 7f 12 9b 3d
       -0.005022675 -0.008552104 0.039313488 0.07571887
000080 e6 57 5f bd 52 90 1f 3d 84 74 ba bc de d4 6e 3d
       -0.054527186 0.038955994 -0.022760637 0.058308475
000090 40 d1 82 bd 2c 9d 8e bd 29 9e 92 3d 7a d1 52 3d
       -0.063875675 -0.06963572 0.07159073 0.051469304
0000a0 6b 0f c4 bd 94 eb 89 3c 38 f3 90 bd 08 5e cb bc
       -0.09573253 0.016835965 -0.0707764 -0.024825111
0000b0 13 dc 75 bd 3c 80 f3 3c d3 80 c5 3d 38 f6 04 bc
       -0.060024332 0.029724233 0.09643712 -0.008115344
0000c0 41 ec 8c bd 38 de c7 3c 59 f4 8e 3d 00 86 0f 39
       -0.06880999 0.024397954 0.06980199 0.00013687462
0000d0 12 4f 36 3d e6 6f 08 bd c1 6d 8f bd 22 01 53 3d
       0.044509 -0.03330984 -0.07003356 0.051514752
0000e0 e0 3e b2 bd be 87 03 3d d0 f4 21 bc 16 db 56 3d
       -0.08703399 0.032111876 -0.009885028 0.05245503
0000f0 6a 4c 16 bd a0 32 47 3c 54 22 05 bd 88 b8 fe bc
       -0.036693968 0.012158066 -0.03250344 -0.03109385
000100 55 cb 9c bd 44 74 1a bd 76 30 11 3d e3 19 75 bd
       -0.0765597 -0.037708536 0.035446607 -0.05983914
000110 5c c4 e2 bc ba a5 5f 3d 20 33 70 bd 7e 68 6c bd
       -0.027681522 0.05460141 -0.058642507 -0.05771684
000120 ce d7 aa bd 2e 1e 4d 3d 4b c7 c7 bd e3 6d 93 3d
       -0.08341943 0.05007761 -0.09754809 0.071986936
000130 b8 62 6c 3c be 65 4b 3d e4 b1 ca 3c be 29 40 3d
       0.014427833 0.049657576 0.024743028 0.04691481
000140 be b4 89 bd d4 88 95 bd 60 58 ab 3b 90 82 74 bc
       -0.06723927 -0.073014885 0.005229041 -0.014923707
000150 91 b0 65 bd df 72 bb 3d 0b a0 92 bd a0 26 f0 bb
       -0.05607659 0.09152769 -0.07159432 -0.007328823
000160 b6 c7 12 3d 71 c1 ab 3d b7 04 97 3d bf c6 b8 bd
       0.03583499 0.083865054 0.07373946 -0.09022283
000170 22 b1 16 3d 42 a4 2b 3d 78 80 55 bd 9f c0 96 3d
       0.03679002 0.041904695 -0.05212447 0.07360958
000180 f2 01 88 bd c2 f3 49 3d 62 0d 3a bd 80 cc 56 3a
       -0.06640996 0.04930473 -0.04542292 0.0008193925
000190 d2 90 6f 3d 58 98 c6 3c b8 31 46 3c 3e 13 c0 bd
       0.05848772 0.024242565 0.012096815 -0.0937867
0001a0 a4 77 a3 3c 88 4e cd bc 6d 99 83 3d 90 63 6c bd
       0.01995451 -0.02506186 0.06425748 -0.057712138
0001b0 3f 14 a4 3d a0 a6 c6 bb 60 66 71 bc c3 6d 7b bd
       0.08011674 -0.0060623437 -0.014733881 -0.061383974
0001c0 20 0c da 3b ce 44 90 bd 7e 56 4b 3d c6 01 ab bd
       0.0066542774 -0.070443735 0.049643032 -0.08349948
0001d0 9e 41 5d 3d b0 ac 6f bc 60 32 ca bd 29 70 a9 3d
       0.054017656 -0.014628574 -0.098728895 0.08273346
0001e0 95 3b 60 bd e9 0e cc 3d 50 7d 43 3c 62 5d 7f 3d
       -0.05474432 0.099637814 0.011931732 0.062344916
0001f0 52 4f be bd da 78 3c bd 24 bf 70 bd 96 21 14 3d
       -0.09292473 -0.04601369 -0.058776036 0.036164843
000200 a6 3e 34 bd b8 0f e3 bc 20 8a bc 3b 36 5f 6d 3d
       -0.04400506 -0.027717456 0.0057537705 0.05795213
000210 60 48 4d bc 60 ea a2 3b 00 f4 98 3c 10 8e bf bd
       -0.012529463 0.0049717873 0.018671036 -0.09353268
000220 eb 94 6d bd e7 ee 51 bd c2 a7 6b 3d 6a 56 8e bd
       -0.058003347 -0.051253226 0.057533033 -0.06950076
000230 90 0d bb 3b 4b 27 71 bd 86 73 cc bd 6a 0d 70 bd
       0.005708404 -0.058875363 -0.09982972 -0.058606543
000240 9b 51 bf 3d c8 84 09 bc 99 ae 9e 3d 11 e3 7c bd
       0.09341737 -0.008393474 0.077481456 -0.061739985
000250 2a 6d 72 bd 80 39 4e bb 70 ed 83 3b 11 11 56 bd
       -0.05918614 -0.0031467378 0.0040261075 -0.05226237
000260 ee a3 69 3d 3e 5c 42 bd 60 56 0e 3b 18 98 36 bd
       0.0570411 -0.04745125 0.0021718964 -0.04457864
000270 9c 39 94 3c 0e 81 c4 bd 25 0f a9 3d 00 18 03 39
       0.018093877 -0.09594928 0.08254842 0.00012502074
000280 d0 d8 85 3c f9 68 7a bd 1d f4 71 bd fa 96 5b 3d
       0.016338736 -0.061135266 -0.059070695 0.05361078
000290 d2 b9 71 3d 6a 83 34 3d 60 cd 7e 3c 13 b1 a1 bd
       0.059015103 0.04407064 0.015551895 -0.07895102
0002a0 57 7e 3f bd 8f 16 bd bd 7f aa 73 bd 36 f3 53 3d
       -0.046751346 -0.09232818 -0.05948877 0.051745616
0002b0 90 c5 da 3b 58 c9 8d bd 3b 0a 9f bd e0 9e 14 3b
       0.0066763833 -0.06923169 -0.07765623 0.0022677705
0002c0 d6 de 0d 3d 93 21 c3 bd 17 26 b3 bd c6 12 7f 3d
       0.03463634 -0.09527888 -0.087474994 0.062273763
0002d0 d4 28 8e 3c cb f8 98 3d 7c a3 a4 3c ba df 58 3d
       0.017353453 0.074693285 0.020097487 0.052947737
0002e0 aa 35 24 3d 7f ff c7 3d c0 7f ff 3b 59 17 b5 3d
       0.04009024 0.09765529 0.0077972114 0.08842344
0002f0 7c 84 a5 bc d9 64 99 3d 83 65 b1 3d f0 46 92 3c
       -0.020204775 0.07489938 0.0866194 0.017856091
000300 20 39 3b bc 59 24 99 3d 86 24 41 bd 83 f3 c8 3d
       -0.011427194 0.07477636 -0.047153972 0.09812071
000310 aa e6 4b bd ac e2 b2 bc 7e f7 24 3d fe 66 14 3d
       -0.049780525 -0.021836601 0.04027509 0.036231034
000320 00 e8 8d 39 60 6f db bc 2c 6b a9 bc ff f0 ae bd
       0.0002706647 -0.026786506 -0.020680986 -0.0854206
000330 79 b1 30 bd 4d a6 96 bd a0 6d 10 bc 42 1f 53 3d
       -0.043138 -0.07355938 -0.008815199 0.05154348
000340 a6 1e 73 3d c0 4c e9 3b a0 bf a1 bd 3f ae 22 bd
       0.0593554 0.007119745 -0.07897878 -0.039716955
000350 c6 4b 02 3d 59 b2 9c 3d ea bd 2e 3d 53 d6 89 3d
       0.031810544 0.076512046 0.042661585 0.06730332
000360 94 18 86 bd 6c 36 d3 3c c3 f3 1e bd 50 3a 97 bd
       -0.06547657 0.025782786 -0.038806688 -0.07384169
000370 46 8e 12 bd 7c 4c ea 3c 90 a7 b2 3c 2e 45 6d 3d
       -0.035780214 0.028600924 0.021808416 0.057927303
000380 78 78 60 3c 90 cf 7b 3c b8 39 e9 bc c4 a3 b3 3c
       0.013700597 0.015369311 -0.028469905 0.021928675
000390 46 a0 83 bd c7 3b 9c 3d 1d 7f 93 bd 62 2c 63 3d
       -0.06427054 0.07628589 -0.07201979 0.05546225
0003a0 7a 4a 23 bd 48 40 53 3c ce 05 b7 bd a0 7b 85 bb
       -0.03986595 0.012893744 -0.08936654 -0.004073575
0003b0 df 27 94 3d 42 74 6f 3d bc bd 19 bd 06 7f 36 3d
       0.07234167 0.05846048 -0.03753446 0.044554733
0003c0 18 25 85 bd 09 02 95 3d 44 2b ca 3c 7c 78 f3 3c
       -0.06501216 0.07275779 0.024678834 0.029720537
0003d0 ca 61 6d bd 0e 17 21 3d fe 55 a7 bd e0 68 1c 3b
       -0.057954587 0.039328627 -0.081706986 0.0023866221
0003e0 8a 9a 3e 3d 95 7d b9 3d 02 fc 47 3d 7a 59 5b bd
       0.0465341 0.09057156 0.048824318 -0.05355213
0003f0 9d 61 89 3d 0e ad 4a 3d 7a f6 c8 bd 67 1e af bd
       0.067080714 0.049481444 -0.09812637 -0.08550721

lstm.weight_hh_l0 f4 [512, 128]
000000 27 97 95 bd ec a1 72 3d 05 57 5a bd e0 22 8d 3b
       -0.07304221 0.059236452 -0.053305645 0.004307136
000010 82 fe 98 bd 88 66 a3 3d f0 b7 2f 3c 38 8f 5f 3c
       -0.074704185 0.07978541 0.010725006 0.013644986
000020 58 2e 3d 3d 48 8c 13 3c 7c 58 5f 3d be 83 a4 bd
       0.046186775 0.009005614 0.054527745 -0.0803294
000030 a0 f8 af 3d d0 ba 21 3d a4 89 9e bd 90 29 c4 3b
       0.08592343 0.0394848 -0.077410966 0.0059864
000040 b4 74 4c 3d 7c 7e 24 3d 24 fd 79 bd fa ac bb bd
       0.049915984 0.040159687 -0.06103243 -0.09163852
000050 0c 35 78 3d a0 20 6e 3b 92 09 57 bd 68 d9 bf 3c
       0.060597464 0.0036335364 -0.05249936 0.023419097
000060 06 cb 08 bd 70 c2 f0 bb 80 6e 49 3a 44 75 70 3d
       -0.033396743 -0.0073473975 0.0007684007 0.058705583
000070 20 44 b7 bd c4 78 da 3c a0 6c 2e 3d f0 36 30 3d
       -0.08948541 0.026668914 0.04258406 0.043021142
000080 38 6c 02 bd cf 2b 17 bd 24 de 91 3d 83 c3 7d bd
       -0.031841487 -0.036907014 0.07122448 -0.061954033
000090 0c f5 21 3d 5c 8d 8d 3c 4d f6 42 bd 18 7d cf 3c
       0.039540336 0.01727932 -0.047598172 0.025328204
0000a0 36 d2 b7 3d 94 d4 55 bd 04 9f 4c 3d f0 be 0c 3d
       0.089756414 -0.052204683 0.049956337 0.03436178
0000b0 cf 42 a7 bd 76 cc 03 bd e0 64 32 3d 6a ba 89 bd
       -0.081670396 -0.03217741 0.043553233 -0.06725009
0000c0 68 5f c7 bc 79 4f 9e bd b8 d7 f1 bc 08 14 a3 3c
       -0.024337485 -0.07730002 -0.029521808 0.019907013
0000d0 68 56 dd 3c dc d1 b6 3c ae 86 b6 bd 60 00 4f bd
       0.02701874 0.022316866 -0.08912407 -0.050537467
0000e0 40 9e ee bc c3 32 a6 bd 88 8a a8 3d 40 9d de bc
       -0.029128194 -0.08115151 0.08229548 -0.027174592
0000f0 17 24 95 bd 0c b4 8d 3d 64 9d 44 bd 61 86 43 bd
       -0.07282274 0.06919107 -0.048001662 -0.047735576
000100 e8 b4 6a 3d bc 81 b7 3c dc 3a 93 bc 23 13 ac bd
       0.057301432 0.02240073 -0.017972402 -0.084020875
000110 14 9a a1 bd 65 49 99 bd 40 a6 3a bc 99 e6 c5 bd
       -0.07890716 -0.07484702 -0.011392176 -0.09663124
000120 40 a4 49 bb 80 a1 33 3a 26 0e 84 bd 08 75 b5 bc
       -0.0030768067 0.00068523735 -0.06448011 -0.022150531
000130 9a df 3a bd a6 2b 76 bd 28 5a 23 bc b0 fa 73 3c
       -0.0456234 -0.06010022 -0.009970225 0.0148913115
000140 b5 0f 71 bd a2 e4 c3 3d 90 85 bc bc f0 72 7c bd
       -0.05885287 0.095650926 -0.023012906 -0.06163305
000150 00 aa b8 bb 98 58 59 3d 99 af 6d bd 50 54 19 3d
       -0.0056355 0.053063005 -0.05802879 0.037433922
000160 18 c1 4c bc e6 3c 86 bd 2c 69 b8 3d e4 f9 7b 3d
       -0.012497209 -0.06554584 0.09004435 0.06151761
000170 01 26 41 bd c2 69 c0 bd e6 49 b1 3d 18 dc 8c 3d
       -0.047155384 -0.09395172 0.08656673 0.06877917
000180 18 2a 53 3d 88 24 96 3c 71 68 45 bd 99 9a 7c bd
       0.051553816 0.018327966 -0.048195306 -0.061670873
000190 20 83 51 3d 98 b1 c9 bc 3c 3c c6 3c f1 79 ac bd
       0.05115044 -0.024620816 0.024198644 -0.08421696
0001a0 e8 9e a7 bd 68 98 82 3d 84 9e e3 bc b4 5f b1 3c
       -0.08184606 0.063767254 -0.027785547 0.02165208
0001b0 0c 29 85 3d 2e dc 93 bd 2c 4e c6 bc c0 e1 45 3c
       0.0650197 -0.0721973 -0.024207197 0.012077749
0001c0 88 03 27 3d 90 4a 8d bd 1d ed 16 bd 93 25 6b bd
       0.040774852 -0.06898987 -0.036847223 -0.05740888
0001d0 20 6a 0d 3d de 61 30 bd fc bd 2c 3d 0c de a3 bd
       0.034525037 -0.043062083 0.04217337 -0.080013365
0001e0 24 41 97 3d 62 59 96 bd 64 a5 56 3d 98 2c 53 3c
       0.073854715 -0.07341267 0.052403823 0.01288905
0001f0 eb ea 32 bd 9c e8 7d 3d fb 93 1d bd 64 8d b0 bd
       -0.043681066 0.06198941 -0.038471203 -0.08620718
000200 ee d4 ae bd 3b 3f 9e bd 53 c7 9e bd 48 a1 17 bc
       -0.08536707 -0.07726904 -0.07752862 -0.009254761
000210 00 9c 1c bc ea d9 97 3d b3 b3 8a bd 01 39 4f bd
       -0.009558678 0.07414611 -0.06772556 -0.050591473
000220 a8 53 11 3d b6 32 81 bd 40 fe f9 bb ec 54 0f bd
       0.03548017 -0.063085005 -0.007629186 -0.034993097
000230 78 84 ed 3c 9c 7e 24 bd 7c 5a b6 3d c5 ec af bd
       0.02899383 -0.040159807 0.08903977 -0.08590082
000240 08 ac 15 3d dc 34 ce bc f0 fa 13 3d 80 25 19 bc
       0.036541015 -0.02517169 0.036127985 -0.00934732
000250 46 bd ab 3d dc 13 a8 bc e6 a3 88 bd 88 6a ed bc
       0.083857104 -0.020517282 -0.06671886 -0.028981462
000260 fc 88 90 3c 08 4e bc bd 75 72 24 bd 24 67 9b 3c
       0.017643444 -0.09194571 -0.040148217 0.01897008
000270 8a 0a a0 3d 6a 97 c5 bd c4 dc f7 bc 6d 31 a3 bd
       0.0781451 -0.096480206 -0.030256636 -0.079684116
000280 d4 05 3a 3d 0c b8 08 3d 0d c7 c3 bd 50 3a e6 bc
       0.045415714 0.033378646 -0.0955945 -0.028103977
000290 20 73 07 3c 54 65 a2 3d a6 4a 85 bd b0 89 2a 3d
       0.008267194 0.07929483 -0.06508379 0.041635215
0002a0 bc 94 bc bd 8f 42 c3 bd 4b f6 b6 bd e4 dd 44 3d
       -0.09208056 -0.095341794 -0.089336954 0.048063174
0002b0 54 aa 67 3d 00 7d f6 3c 78 5e ff 3c 70 4d 76 bc
       0.056558922 0.030088902 0.031172976 -0.015033111
0002c0 02 c0 9c bd f4 fb 56 bd 3e 79 b4 bd 0f e4 66 bd
       -0.0765381 -0.052486375 -0.088121876 -0.056369837
0002d0 c4 26 87 bd 58 bb b1 3d 1c 49 26 bd a0 82 b1 3d
       -0.06599191 0.08678311 -0.040597066 0.08667493
0002e0 08 67 53 3d ef 20 8c bd 08 15 23 bd 8a c2 c1 bd
       0.05161193 -0.06842219 -0.03981498 -0.094609335
0002f0 94 71 b8 3d f4 65 93 3d e0 97 87 bb 3f 82 b9 bd
       0.09006038 0.071971804 -0.004137978 -0.090580456
000300 08 75 75 3d 0a 1c 9a bd 00 fd 4d bb e0 d6 63 bc
       0.059926063 -0.07524879 -0.0031431317 -0.013906211
000310 9d 0c ac bd a0 e8 ba 3d 04 45 3c 3d 80 71 1b bc
       -0.08400843 0.09126401 0.045964256 -0.00948751
000320 00 a2 99 bd 30 53 6d bc 40 1d 5b 3d 18 be e1 bc
       -0.07501602 -0.0144851655 0.05349469 -0.027556464
000330 08 a4 ec 3c 86 6a 53 bd e2 12 8a 3d b6 9a 9b bd
       0.02888681 -0.05161526 0.06741883 -0.07597868
000340 2e f7 3e bd cc f8 97 bd d8 8e b8 3c f1 6a a8 bd
       -0.046622448 -0.07420501 0.02252905 -0.082235225
000350 97 19 c5 bd 02 aa a8 3d bc 91 86 bc c6 2a c3 3d
       -0.096240215 0.082355514 -0.016426913 0.09529643
000360 da e3 89 3d 84 fe 68 3d 34 50 41 3d ae db 9a 3d
       0.06732912 0.05688335 0.04719563 0.07561432
000370 f8 7d 2a 3c 8f 79 8c bd 88 c6 38 3d ee 6a 0a bd
       0.01040601 -0.06859123 0.04511121 -0.033793382
000380 54 f6 9e bc c8 2b c8 bc b4 8e 41 3d b0 d5 40 3d
       -0.019404568 -0.024434939 0.047255233 0.04707879
000390 c0 71 b3 3a 20 1f 62 bd 0c 7e b9 3d f0 a5 0f 3d
       0.0013690516 -0.055205464 0.09057245 0.03507036
0003a0 c0 48 c2 3a 9c 76 17 3d d8 9d 57 bd 88 b3 c3 3d
       0.0014822707 0.03697835 -0.052640766 0.09555727
0003b0 50 a9 11 bc 0b 30 bb bd 84 0d 8c 3d 90 1f 2b 3c
       -0.008890465 -0.09140023 0.068385154 0.010444537
0003c0 9e bc b7 3d 64 7e b8 bd 08 75 6d bc 80 92 5e 3c
       0.08971523 -0.09008482 -0.014493234 0.013584733
0003d0 90 e8 ca 3b 45 e7 50 bd a4 d3 b5 3d 02 32 a4 3d
       0.0061922744 -0.051001806 0.08878258 0.08017351
0003e0 1e 2d ab 3d 60 9a 29 3d 40 bf 37 3d f7 5c 75 bd
       0.08358215 0.04140699 0.044860125 -0.05990311
0003f0 50 ec 8c bd ec ca bd bc e2 f4 c3 3d 38 0f 4a bc
       -0.068810105 -0.02316805 0.09568192 -0.01233273

lstm.bias_ih_l0 f4 [512]
000000 00 00 00 00 00 00 00 00 00 00 00 00 00 00 00 00
       0.0 0.0 0.0 0.0
000010 00 00 00 00 23 ab 15 b5 00 00 00 00 eb c3 03 ba
       0.0 -5.575586e-07 0.0 -0.00050264475
000020 00 00 00 00 e9 e3 08 3b 00 00 00 00 00 00 00 00
       0.0 0.0020887798 0.0 0.0
000030 00 00 00 00 00 00 00 00 cb 82 8a 89 00 00 00 00
       0.0 0.0 -3.334529e-33 0.0
000040 20 24 1d 0f 00 00 00 00 25 28 f9 17 00 00 00 00
       7.747655e-30 0.0 1.6101382e-24 0.0
000050 00 00 00 00 00 00 00 00 00 00 00 00 00 00 00 00
       0.0 0.0 0.0 0.0
000060 40 eb e1 32 b7 c7 26 9b 38 d5 e1 91 00 00 00 00
       2.6300427e-08 -1.379573e-22 -3.5630147e-28 0.0
000070 00 00 00 00 00 00 00 00 2f bf a2 36 87 b0 1c b7
       0.0 0.0 4.850233e-06 -9.339426e-06
000080 e0 f6 4f 08 00 00 00 00 00 00 00 00 00 00 00 00
       6.2581997e-34 0.0 0.0 0.0
000090 60 3f 27 3b 00 00 00 00 00 00 00 00 00 00 00 00
       0.0025519952 0.0 0.0 0.0
0000a0 cb a2 2c ba 00 00 00 00 00 00 00 00 00 00 00 00
       -0.00065855373 0.0 0.0 0.0
0000b0 00 00 00 00 98 32 20 af 00 00 00 00 00 00 00 00
       0.0 -1.456989e-10 0.0 0.0
0000c0 3e 9e aa 06 00 00 00 00 00 00 00 00 00 00 00 00
       6.417941e-35 0.0 0.0 0.0
0000d0 00 00 00 00 00 00 00 00 49 41 32 87 00 00 00 00
       0.0 0.0 -1.3410417e-34 0.0
0000e0 00 00 00 00 00 00 00 00 56 0f 00 3a 31 d3 54 b2
       0.0 0.0 0.0004885098 -1.23880435e-08
0000f0 00 00 00 00 00 00 00 00 00 00 00 00 00 00 00 00
       0.0 0.0 0.0 0.0
000100 00 00 00 00 00 00 00 00 e5 e7 81 3a cf 2a a5 2c
       0.0 0.0 0.0009911029 4.6943348e-12
000110 00 00 00 00 d5 83 43 3a 00 00 00 00 00 00 00 00
       0.0 0.0007458304 0.0 0.0
000120 21 97 18 3a 00 00 00 00 00 00 00 00 00 00 00 00
       0.000582086 0.0 0.0 0.0
000130 00 00 00 00 00 00 00 00 00 00 00 00 00 00 00 00
       0.0 0.0 0.0 0.0
000140 00 00 00 00 00 00 00 00 00 00 00 00 00 00 00 00
       0.0 0.0 0.0 0.0
000150 00 00 00 00 00 00 00 00 00 00 00 00 00 00 00 00
       0.0 0.0 0.0 0.0
000160 00 00 00 00 00 00 00 00 00 00 00 00 00 00 00 00
       0.0 0.0 0.0 0.0
000170 00 00 00 00 4f ec 17 b9 00 00 00 00 00 00 00 00
       0.0 -0.00014488514 0.0 0.0
000180 2a 8e 05 90 00 00 00 00 b2 fc 3d b3 00 00 00 00
       -2.6339144e-29 0.0 -4.4234817e-08 0.0
000190 77 7d 2a ba 00 00 00 00 00 00 00 00 00 76 c4 0a
       -0.0006503681 0.0 0.0 1.89185e-32
0001a0 00 00 00 00 00 00 00 00 00 00 00 00 00 00 00 00
       0.0 0.0 0.0 0.0
0001b0 01 0d 5a 21 00 00 00 00 00 00 00 00 90 c6 3e 3b
       7.3878484e-19 0.0 0.0 0.0029110052
0001c0 00 00 00 00 00 00 00 00 32 29 40 b5 00 00 00 00
       0.0 0.0 -7.158552e-07 0.0
0001d0 61 c1 89 3a 00 00 00 00 68 64 52 23 62 cf 95 34
       0.0010509902 0.0 1.1405385e-17 2.7904304e-07
0001e0 00 00 00 00 ed 48 dd 1a 00 00 00 00 00 00 00 00
       0.0 9.1521276e-23 0.0 0.0
0001f0 4c 18 23 35 b7 f3 8a 35 ad 26 a7 a0 00 00 00 00
       6.075759e-07 1.0352732e-06 -2.8316494e-19 0.0
000200 00 00 00 00 00 00 00 00 00 00 00 00 00 00 00 00
       0.0 0.0 0.0 0.0
000210 00 00 00 00 00 00 00 00 00 00 00 00 00 00 00 00
       0.0 0.0 0.0 0.0
000220 00 00 00 00 00 00 00 00 00 00 00 00 00 00 00 00
       0.0 0.0 0.0 0.0
000230 00 00 00 00 00 00 00 00 00 00 00 00 00 00 00 00
       0.0 0.0 0.0 0.0
000240 00 00 00 00 00 00 00 00 00 00 00 00 00 00 00 00
       0.0 0.0 0.0 0.0
000250 00 00 00 00 00 00 00 00 00 00 00 00 00 00 00 00
       0.0 0.0 0.0 0.0
000260 00 00 00 00 00 00 00 00 00 00 00 00 00 00 00 00
       0.0 0.0 0.0 0.0
000270 00 00 00 00 00 00 00 00 00 00 00 00 00 00 00 00
       0.0 0.0 0.0 0.0
000280 00 00 00 00 00 00 00 00 00 00 00 00 00 00 00 00
       0.0 0.0 0.0 0.0
000290 00 00 00 00 00 00 00 00 00 00 00 00 00 00 00 00
       0.0 0.0 0.0 0.0
0002a0 00 00 00 00 00 00 00 00 00 00 00 00 00 00 00 00
       0.0 0.0 0.0 0.0
0002b0 00 00 00 00 00 00 00 00 00 00 00 00 00 00 00 00
       0.0 0.0 0.0 0.0
0002c0 00 00 00 00 00 00 00 00 00 00 00 00 00 00 00 00
       0.0 0.0 0.0 0.0
0002d0 00 00 00 00 00 00 00 00 00 00 00 00 00 00 00 00
       0.0 0.0 0.0 0.0
0002e0 00 00 00 00 00 00 00 00 00 00 00 00 00 00 00 00
       0.0 0.0 0.0 0.0
0002f0 00 00 00 00 00 00 00 00 00 00 00 00 00 00 00 00
       0.0 0.0 0.0 0.0
000300 00 00 00 00 00 00 00 00 00 00 00 00 00 00 00 00
       0.0 0.0 0.0 0.0
000310 00 00 00 00 00 00 00 00 00 00 00 00 00 00 00 00
       0.0 0.0 0.0 0.0
000320 00 00 00 00 00 00 00 00 00 00 00 00 00 00 00 00
       0.0 0.0 0.0 0.0
000330 00 00 00 00 00 00 00 00 00 00 00 00 00 00 00 00
       0.0 0.0 0.0 0.0
000340 00 00 00 00 00 00 00 00 00 00 00 00 00 00 00 00
       0.0 0.0 0.0 0.0
000350 00 00 00 00 00 00 00 00 00 00 00 00 00 00 00 00
       0.0 0.0 0.0 0.0
000360 00 00 00 00 00 00 00 00 00 00 00 00 00 00 00 00
       0.0 0.0 0.0 0.0
000370 00 00 00 00 00 00 00 00 00 00 00 00 00 00 00 00
       0.0 0.0 0.0 0.0
000380 00 00 00 00 00 00 00 00 00 00 00 00 00 00 00 00
       0.0 0.0 0.0 0.0
000390 00 00 00 00 00 00 00 00 00 00 00 00 00 00 00 00
       0.0 0.0 0.0 0.0
0003a0 00 00 00 00 00 00 00 00 00 00 00 00 00 00 00 00
       0.0 0.0 0.0 0.0
0003b0 00 00 00 00 00 00 00 00 00 00 00 00 00 00 00 00
       0.0 0.0 0.0 0.0
0003c0 00 00 00 00 00 00 00 00 00 00 00 00 00 00 00 00
       0.0 0.0 0.0 0.0
0003d0 00 00 00 00 00 00 00 00 00 00 00 00 00 00 00 00
       0.0 0.0 0.0 0.0
0003e0 00 00 00 00 00 00 00 00 00 00 00 00 00 00 00 00
       0.0 0.0 0.0 0.0
0003f0 00 00 00 00 00 00 00 00 00 00 00 00 00 00 00 00
       0.0 0.0 0.0 0.0

lstm.bias_hh_l0 f4 [512]
000000 00 00 00 00 00 00 00 00 00 00 00 00 00 00 00 00
       0.0 0.0 0.0 0.0
000010 00 00 00 00 23 ab 15 b5 00 00 00 00 eb c3 03 ba
       0.0 -5.575586e-07 0.0 -0.00050264475
000020 00 00 00 00 e9 e3 08 3b 00 00 00 00 00 00 00 00
       0.0 0.0020887798 0.0 0.0
000030 00 00 00 00 00 00 00 00 cb 82 8a 89 00 00 00 00
       0.0 0.0 -3.334529e-33 0.0
000040 20 24 1d 0f 00 00 00 00 25 28 f9 17 00 00 00 00
       7.747655e-30 0.0 1.6101382e-24 0.0
000050 00 00 00 00 00 00 00 00 00 00 00 00 00 00 00 00
       0.0 0.0 0.0 0.0
000060 40 eb e1 32 b7 c7 26 9b 38 d5 e1 91 00 00 00 00
       2.6300427e-08 -1.379573e-22 -3.5630147e-28 0.0
000070 00 00 00 00 00 00 00 00 2f bf a2 36 87 b0 1c b7
       0.0 0.0 4.850233e-06 -9.339426e-06
000080 e0 f6 4f 08 00 00 00 00 00 00 00 00 00 00 00 00
       6.2581997e-34 0.0 0.0 0.0
000090 60 3f 27 3b 00 00 00 00 00 00 00 00 00 00 00 00
       0.0025519952 0.0 0.0 0.0
0000a0 cb a2 2c ba 00 00 00 00 00 00 00 00 00 00 00 00
       -0.00065855373 0.0 0.0 0.0
0000b0 00 00 00 00 98 32 20 af 00 00 00 00 00 00 00 00
       0.0 -1.456989e-10 0.0 0.0
0000c0 3e 9e aa 06 00 00 00 00 00 00 00 00 00 00 00 00
       6.417941e-35 0.0 0.0 0.0
0000d0 00 00 00 00 00 00 00 00 49 41 32 87 00 00 00 00
       0.0 0.0 -1.3410417e-34 0.0
0000e0 00 00 00 00 00 00 00 00 56 0f 00 3a 31 d3 54 b2
       0.0 0.0 0.0004885098 -1.23880435e-08
0000f0 00 00 00 00 00 00 00 00 00 00 00 00 00 00 00 00
       0.0 0.0 0.0 0.0
000100 00 00 00 00 00 00 00 00 e5 e7 81 3a cf 2a a5 2c
       0.0 0.0 0.0009911029 4.6943348e-12
000110 00 00 00 00 d5 83 43 3a 00 00 00 00 00 00 00 00
       0.0 0.0007458304 0.0 0.0
000120 21 97 18 3a 00 00 00 00 00 00 00 00 00 00 00 00
       0.000582086 0.0 0.0 0.0
000130 00 00 00 00 00 00 00 00 00 00 00 00 00 00 00 00
       0.0 0.0 0.0 0.0
000140 00 00 00 00 00 00 00 00 00 00 00 00 00 00 00 00
       0.0 0.0 0.0 0.0
000150 00 00 00 00 00 00 00 00 00 00 00 00 00 00 00 00
       0.0 0.0 0.0 0.0
000160 00 00 00 00 00 00 00 00 00 00 00 00 00 00 00 00
       0.0 0.0 0.0 0.0
000170 00 00 00 00 4f ec 17 b9 00 00 00 00 00 00 00 00
       0.0 -0.00014488514 0.0 0.0
000180 2a 8e 05 90 00 00 00 00 b2 fc 3d b3 00 00 00 00
       -2.6339144e-29 0.0 -4.4234817e-08 0.0
000190 77 7d 2a ba 00 00 00 00 00 00 00 00 00 76 c4 0a
       -0.0006503681 0.0 0.0 1.89185e-32
0001a0 00 00 00 00 00 00 00 00 00 00 00 00 00 00 00 00
       0.0 0.0 0.0 0.0
0001b0 01 0d 5a 21 00 00 00 00 00 00 00 00 90 c6 3e 3b
       7.3878484e-19 0.0 0.0 0.0029110052
0001c0 00 00 00 00 00 00 00 00 32 29 40 b5 00 00 00 00
       0.0 0.0 -7.158552e-07 0.0
0001d0 61 c1 89 3a 00 00 00 00 68 64 52 23 62 cf 95 34
       0.0010509902 0.0 1.1405385e-17 2.7904304e-07
0001e0 00 00 00 00 ed 48 dd 1a 00 00 00 00 00 00 00 00
       0.0 9.1521276e-23 0.0 0.0
0001f0 4c 18 23 35 b7 f3 8a 35 ad 26 a7 a0 00 00 00 00
       6.075759e-07 1.0352732e-06 -2.8316494e-19 0.0
000200 00 00 00 00 00 00 00 00 00 00 00 00 00 00 00 00
       0.0 0.0 0.0 0.0
000210 00 00 00 00 00 00 00 00 00 00 00 00 00 00 00 00
       0.0 0.0 0.0 0.0
000220 00 00 00 00 00 00 00 00 00 00 00 00 00 00 00 00
       0.0 0.0 0.0 0.0
000230 00 00 00 00 00 00 00 00 00 00 00 00 00 00 00 00
       0.0 0.0 0.0 0.0
000240 00 00 00 00 00 00 00 00 00 00 00 00 00 00 00 00
       0.0 0.0 0.0 0.0
000250 00 00 00 00 00 00 00 00 00 00 00 00 00 00 00 00
       0.0 0.0 0.0 0.0
000260 00 00 00 00 00 00 00 00 00 00 00 00 00 00 00 00
       0.0 0.0 0.0 0.0
000270 00 00 00 00 00 00 00 00 00 00 00 00 00 00 00 00
       0.0 0.0 0.0 0.0
000280 00 00 00 00 00 00 00 00 00 00 00 00 00 00 00 00
       0.0 0.0 0.0 0.0
000290 00 00 00 00 00 00 00 00 00 00 00 00 00 00 00 00
       0.0 0.0 0.0 0.0
0002a0 00 00 00 00 00 00 00 00 00 00 00 00 00 00 00 00
       0.0 0.0 0.0 0.0
0002b0 00 00 00 00 00 00 00 00 00 00 00 00 00 00 00 00
       0.0 0.0 0.0 0.0
0002c0 00 00 00 00 00 00 00 00 00 00 00 00 00 00 00 00
       0.0 0.0 0.0 0.0
0002d0 00 00 00 00 00 00 00 00 00 00 00 00 00 00 00 00
       0.0 0.0 0.0 0.0
0002e0 00 00 00 00 00 00 00 00 00 00 00 00 00 00 00 00
       0.0 0.0 0.0 0.0
0002f0 00 00 00 00 00 00 00 00 00 00 00 00 00 00 00 00
       0.0 0.0 0.0 0.0
000300 00 00 00 00 00 00 00 00 00 00 00 00 00 00 00 00
       0.0 0.0 0.0 0.0
000310 00 00 00 00 00 00 00 00 00 00 00 00 00 00 00 00
       0.0 0.0 0.0 0.0
000320 00 00 00 00 00 00 00 00 00 00 00 00 00 00 00 00
       0.0 0.0 0.0 0.0
000330 00 00 00 00 00 00 00 00 00 00 00 00 00 00 00 00
       0.0 0.0 0.0 0.0
000340 00 00 00 00 00 00 00 00 00 00 00 00 00 00 00 00
       0.0 0.0 0.0 0.0
000350 00 00 00 00 00 00 00 00 00 00 00 00 00 00 00 00
       0.0 0.0 0.0 0.0
000360 00 00 00 00 00 00 00 00 00 00 00 00 00 00 00 00
       0.0 0.0 0.0 0.0
000370 00 00 00 00 00 00 00 00 00 00 00 00 00 00 00 00
       0.0 0.0 0.0 0.0
000380 00 00 00 00 00 00 00 00 00 00 00 00 00 00 00 00
       0.0 0.0 0.0 0.0
000390 00 00 00 00 00 00 00 00 00 00 00 00 00 00 00 00
       0.0 0.0 0.0 0.0
0003a0 00 00 00 00 00 00 00 00 00 00 00 00 00 00 00 00
       0.0 0.0 0.0 0.0
0003b0 00 00 00 00 00 00 00 00 00 00 00 00 00 00 00 00
       0.0 0.0 0.0 0.0
0003c0 00 00 00 00 00 00 00 00 00 00 00 00 00 00 00 00
       0.0 0.0 0.0 0.0
0003d0 00 00 00 00 00 00 00 00 00 00 00 00 00 00 00 00
       0.0 0.0 0.0 0.0
0003e0 00 00 00 00 00 00 00 00 00 00 00 00 00 00 00 00
       0.0 0.0 0.0 0.0
0003f0 00 00 00 00 00 00 00 00 00 00 00 00 00 00 00 00
       0.0 0.0 0.0 0.0

lstm.weight_ih_l1 f4 [512, 128]
000000 60 70 e3 bd e4 bf 12 be 6f 63 a8 be 47 17 a0 bc
       -0.11105418 -0.14331013 -0.32888362 -0.01954235
000010 26 df 15 be 52 9e 17 be 33 28 14 3f f4 41 04 be
       -0.14635906 -0.14806488 0.5787384 -0.12915784
000020 90 71 93 3d e1 b2 ad bd ce c3 99 be a8 1b 3b 3e
       0.07199395 -0.08481384 -0.300322 0.18272269
000030 4f be 9e 3e 93 fd e3 3b 80 0e a6 3e a5 23 f8 3e
       0.3100457 0.0069577186 0.32432938 0.48464695
000040 15 56 05 3e 35 ca 92 3e 4d ef 20 be 6c cc fa bd
       0.13021119 0.28669897 -0.15716286 -0.12246022
000050 b0 4d 22 3b c2 fa db 3c 93 3b 62 3d 42 df 70 3e
       0.0024765544 0.02685297 0.055232596 0.23522666
000060 c7 d7 bf 3e 17 b1 12 be e8 a7 a2 bd 24 89 24 3e
       0.37469313 -0.14325367 -0.07942182 0.1606794
000070 3e 9f 72 be ff de 41 be 9c 3d 0e be 37 75 e9 3d
       -0.23693559 -0.18932723 -0.1389069 0.1139931
000080 23 e3 71 3e da 91 ef be 80 93 bf ba 25 73 cf 3e
       0.23621802 -0.46790963 -0.0014616102 0.40517536
000090 b4 52 0e 3e 32 ac 55 3e 31 cd 99 3d 99 ac 1c be
       0.13898736 0.20866469 0.0750984 -0.15300216
0000a0 c8 d8 04 3f 9c f6 99 be bf 12 1e 3e a1 52 ae bd
       0.5189328 -0.3007096 0.15436839 -0.08511854
0000b0 54 da b5 bd 9a 7b 15 be e4 69 f7 bd 78 96 35 bd
       -0.088795334 -0.14597932 -0.12080744 -0.04433295
0000c0 bf 39 17 be 70 9c a4 be c7 f0 95 bc 15 50 90 3d
       -0.14768122 -0.32150602 -0.018303288 0.070465244
0000d0 e7 58 57 bd 78 bf 0c be 4b 0f 75 3e fd 1c c9 3d
       -0.05257502 -0.13744915 0.23931615 0.09819982
0000e0 e2 d9 38 bd 6e ee 28 3c 7e b5 78 3e 4b 33 9f be
       -0.045129664 0.010310752 0.24287984 -0.3109382
0000f0 86 58 08 3e cb 34 a3 bd b0 ea 0f 3d 26 d4 f3 3d
       0.13315019 -0.07969054 0.035135925 0.119056985
000100 49 ea c1 3d ac 4e bc be 4a 31 a5 be fe bb 10 be
       0.094685145 -0.36778772 -0.32264167 -0.14134213
000110 39 7f 8a bd f2 99 82 3a a2 63 2e 3e 2c c7 ae 3e
       -0.06762547 0.0009964092 0.17030194 0.3413633
000120 bb bb 4d be 8a d3 5c bd b4 bf 0c bc 39 aa 86 be
       -0.20091145 -0.053912677 -0.008590627 -0.26301745
000130 30 a1 0f 3e e9 7e c0 3e ac fa 36 3e 66 66 e0 bc
       0.14026332 0.37596825 0.17869061 -0.027392577
000140 b1 c1 85 3e a4 07 b2 3d 0b 56 9c bc 89 d3 8e 3e
       0.26124337 0.086928636 -0.019083997 0.27895764
000150 31 80 a8 3d 80 b8 de 3e 6c d5 2f bd 90 fd 05 bf
       0.082275756 0.43500137 -0.042928144 -0.5234003
000160 18 78 42 3c d0 7f 6f 3d 75 b8 07 3c b7 4c 2b be
       0.011869453 0.0584715 0.008283724 -0.16728483
000170 9b 75 9e 3e 93 ef 19 bd 73 17 1c be ac e4 a4 3d
       0.309491 -0.03758199 -0.1524332 0.08051428
000180 e2 ac cd bb 53 1f 66 bc d0 e8 b4 be 0f dc 95 3d
       -0.0062767128 -0.014045554 -0.35333872 0.073173635
000190 12 e1 0c bf 23 c0 3f be bb b0 8a 3e 43 04 ab bd
       -0.5503093 -0.18725638 0.2708796 -0.08350422
0001a0 57 ec 99 3d 45 22 5e 3d ed 6e 54 be 72 63 ab be
       0.075157814 0.0542319 -0.2074544 -0.33474308
0001b0 8d f8 cb be 70 df cc bd 48 32 6d bd 62 8c 82 bc
       -0.39838067 -0.10003555 -0.05790928 -0.01593608
0001c0 db 56 59 3e ae 82 3a 3d 76 e3 76 bd e0 e4 23 3c
       0.21224539 0.045534782 -0.060275517 0.0100032985
0001d0 07 c7 39 be e7 14 80 3d 87 7c 9f be aa b9 25 3e
       -0.18142329 0.06253987 -0.31149694 0.16184106
0001e0 f5 29 90 bd f9 9e 4a be 5f e1 49 3c cf fc 12 be
       -0.07039253 -0.19787206 0.012321799 -0.14354251
0001f0 e1 48 ba 3d 87 e5 bd 3e 9b 96 f7 bb 5c 99 8e bc
       0.09095932 0.37089178 -0.0075557954 -0.017407112
000200 3e bf 78 3b 21 99 21 be 8e 0c 30 be 18 04 2f be
       0.0037955786 -0.1578107 -0.17192289 -0.17091405
000210 ad 92 d6 3d 2d bc 0f bd ae c3 1a 3f 2f de 07 3e
       0.10477195 -0.035091568 0.60454834 0.1326835
000220 8e 8c 87 3d 1e d5 8b be f1 65 a1 3e 61 2e c3 be
       0.066186056 -0.27311033 0.31523088 -0.38121322
000230 a8 6a f9 bb 0b b2 02 be 94 4e 71 3e a3 72 8c 3e
       -0.0076115914 -0.1276323 0.23565131 0.2743121
000240 20 ae 47 3e 9a 24 e4 3c 4f e1 ba 3d 79 2b 68 bc
       0.19500017 0.027849484 0.091250055 -0.014170521
000250 95 56 1d 3c 9e d6 61 3a 94 65 31 be 90 62 4d 3e
       0.009603162 0.00086150493 -0.17323905 0.2005713
000260 45 0a 3b bd fe 28 97 3e f9 38 87 3c 5b e2 b8 3d
       -0.04566409 0.29523462 0.016506659 0.09027549
000270 80 94 19 3e 4d b6 a9 bd b5 c8 29 bd bf 13 91 3d
       0.14998055 -0.08286724 -0.041451175 0.070838444
000280 c5 b0 9a 3e 10 10 b6 be 70 d5 1b 3c df bd 93 3c
       0.3021299 -0.3555913 0.009511337 0.018034874
000290 8b 62 d8 3d 4d 01 1b 3e 53 07 87 3e 56 06 86 3c
       0.105656706 0.15137215 0.26372775 0.016360443
0002a0 84 c9 d2 3e 4a f2 ac bb dd ea 12 3e 5a 25 07 be
       0.4116937 -0.0052779065 0.14347406 -0.13197842
0002b0 5a 16 75 bd 00 f6 29 be 8b 30 48 3e 32 59 fb bc
       -0.05983577 -0.16597748 0.19549768 -0.03068218
0002c0 a7 fb b1 3e 68 e6 2b bd b7 32 12 bd 65 ae 75 3c
       0.34762308 -0.04196778 -0.035692897 0.014995192
0002d0 1f e0 83 3d ed 60 9d bd fa e3 2e 3e 15 27 0e 3e
       0.06439232 -0.07684503 0.17079154 0.13882096
0002e0 0d 89 0c bf f0 f1 00 3f f7 37 b8 3d cf 38 5c be
       -0.5489662 0.5036917 0.089950494 -0.21506046
0002f0 f3 30 04 be 96 8c 3b be 77 b1 0a 3e 50 0a 44 bc
       -0.12909298 -0.18315348 0.1354426 -0.011965349
000300 4b 68 a3 3e e3 b8 c5 3d bd 26 33 be 4c 82 cb 3d
       0.31915507 0.09654405 -0.17495246 0.099369615
000310 a7 58 ad be 00 fb a4 be 55 e3 20 3e 08 65 39 bd
       -0.338567 -0.32222748 0.1571172 -0.045262367
000320 41 70 0d 3e 0c d0 02 3e 27 52 90 bd eb 7f 3e 3d
       0.13812353 0.12774676 -0.07046919 0.04650871
000330 ca 10 3e 3e 64 f4 cc 3d 85 c4 7f 3e 80 f8 bf 3e
       0.18561092 0.10007551 0.2497731 0.37494278
000340 ec 86 8c bd ab 7a 97 bd 4b 23 13 bd fb 7d 36 be
       -0.06861672 -0.07396444 -0.03592233 -0.17821495
000350 56 b2 c4 3d f2 ae da 3e 7f 10 6c bd 19 00 d2 3c
       0.096043274 0.42711598 -0.05763292 0.025634812
000360 68 d7 01 be d6 c3 6f bd bf db 7a 3e de f6 c5 be
       -0.12679827 -0.058536373 0.24497889 -0.38664907
000370 c0 ad 81 3d a3 7c ca bd 02 17 68 be c3 d9 89 3e
       0.06331968 -0.09887054 -0.22665027 0.26923952
000380 75 67 19 bf 88 78 c0 3c c2 d7 de 3d 5b 6a aa 3c
       -0.5992349 0.023494974 0.10880996 0.020802667
000390 2a 11 67 bd be 0c 8f 3c 4c 28 82 3d 54 e9 2e be
       -0.056412853 0.01746213 0.06355342 -0.17081195
0003a0 1a 45 b0 be 94 45 8d be 1d 05 ec 3c 9d dc ca be
       -0.3442772 -0.27592146 0.028811032 -0.3962144
0003b0 82 e5 3f bd 6b 9d 02 3e 36 a1 9f bd ae 7a 03 3e
       -0.046849735 0.12755363 -0.077944204 0.12839767
0003c0 a1 0e eb 3e 2d 02 0c 3e 74 89 10 3e 70 af 8a 3e
       0.45909598 0.13672705 0.14114934 0.27086973
0003d0 b5 74 09 3e 22 fb c5 3d fc 60 e0 bc 4d 40 ec 3b
       0.13423426 0.096670404 -0.027389996 0.0072098137
0003e0 3c 5a b5 3d 43 4c 6a be 6c b2 64 bc 37 e8 a5 bd
       0.088551015 -0.22880654 -0.013958555 -0.08100932
0003f0 0b 42 96 bd 4f 6a f6 bb 85 ae 97 bd 2d 67 e7 3c
       -0.073368154 -0.007519997 -0.07406334 0.02824744

lstm.weight_hh_l1 f4 [512, 128]
000000 63 36 90 bd 94 f0 8d bd c8 a8 01 3c 8a be b2 3d
       -0.070416234 -0.06930652 0.007913776 0.08727749
000010 48 ff 52 bc b8 d7 73 3d cc 2b 8b bd 38 04 8c 3d
       -0.012878247 0.059531897 -0.06795463 0.06836742
000020 d4 29 3e bd f4 5e 87 3c d1 db 38 bd c8 ba d2 3c
       -0.04642661 0.01652477 -0.04513151 0.02572383
000030 00 bd d6 bb 45 9b c5 bd c8 37 8f bd 9a 21 42 bd
       -0.0065532923 -0.09648756 -0.06993061 -0.047395326
000040 87 a1 27 bd fc 42 3b 3d 7c ad 5c 3d 54 8e 05 3d
       -0.04092553 0.04571818 0.053876385 0.032606438
000050 d0 45 b8 3d 18 c3 ad 3d 90 a3 da bb 80 a8 5e 3b
       0.08997691 0.08484477 -0.00667233 0.0033974946
000060 a5 81 88 bd 5c af 16 3d 17 f3 87 bd 68 d1 49 3d
       -0.06665353 0.03678833 -0.066381626 0.04927197
000070 02 1d af 3d 94 43 2a 3d 51 20 9d bd e8 03 52 3d
       0.08550455 0.041568354 -0.076721795 0.051273257
000080 58 d8 c7 3c a8 95 8e 3d 66 64 22 bd 38 1b a8 bd
       0.024395153 0.069621384 -0.03964653 -0.082083166
000090 62 35 9b bd 46 24 a7 3d 69 8b 62 bd d8 eb 55 bc
       -0.07578541 0.081612155 -0.055308733 -0.013056718
0000a0 e0 7a ca bc 9f 8e 55 bd 96 72 a0 3d 38 93 29 bd
       -0.024716794 -0.052137967 0.078343555 -0.041400164
0000b0 00 e1 c6 3a 6c 5f 61 bd b0 1f 56 bc 74 80 ac 3c
       0.0015173256 -0.055022642 -0.013069078 0.021057345
0000c0 88 45 f7 3c e0 c6 75 3d bc a7 8b bd c6 bd c1 3d
       0.030184522 0.060004115 -0.06819102 0.094600245
0000d0 cc 5a 90 bd 36 29 81 3d e0 4c 8b bc ac 42 18 bd
       -0.07048568 0.063066885 -0.01700443 -0.03717296
0000e0 90 87 a3 3b 18 37 5c bc d8 d2 2d 3d f8 5f 98 bc
       0.0049905255 -0.01344087 0.042437404 -0.018600449
0000f0 96 c9 23 bd dc 77 30 bd e8 a1 55 3c 10 27 3b 3d
       -0.03998717 -0.043083057 0.01303909 0.04569155
000100 1a c4 7c bd 0c 17 ae 3d 20 b4 d6 3b f8 c1 b3 bc
       -0.061710455 0.085004896 0.0065522343 -0.021943077
000110 56 7a bf bd 10 2b b2 bc 00 f0 a0 bb fc 44 67 3d
       -0.093495056 -0.02174905 -0.0049114227 0.056462273
000120 c8 90 ac bd 80 3c a3 3d 60 4f 11 bc a8 81 09 bd
       -0.08426052 0.07970524 -0.008869022 -0.033570915
000130 8a 9f 85 3d 1c 6d 81 3c 16 6a 39 bd 9c 8b 2e 3d
       0.0652457 0.015799098 -0.045267187 0.04261361
000140 2c bb a4 bd 30 69 93 bb 9c a0 c0 3d c4 27 af 3d
       -0.08043513 -0.0044986233 0.09405634 0.085525066
000150 cd ef 8f bd 38 cd 41 3d fa fe 3b bd 70 8d b2 3b
       -0.0702816 0.047314852 -0.04589746 0.0054489896
000160 12 de 87 3d 94 c0 40 3d 0c c5 5c 3d b4 82 98 3d
       0.066341534 0.047058657 0.053898856 0.07446805
000170 09 8c 8f bd b2 43 c1 3d b4 af 1b 3d 60 b0 2d 3d
       -0.070091315 0.0943674 0.03800936 0.042404532
000180 40 6a 58 bb e8 98 10 3d 80 8e 33 bb 9a 30 ae bd
       -0.0033022314 0.035302073 -0.002739817 -0.08505364
000190 c0 5b ee 3c 6c 30 0b 3d 96 52 c5 3d a0 5e 54 3d
       0.029096484 0.033981726 0.09634893 0.051848054
0001a0 c1 56 2a bd 68 9d b0 3d 7f 22 19 bd 6c 24 53 3d
       -0.04158664 0.08623773 -0.037386414 0.051548406
0001b0 c0 63 61 3d f8 7a 0d bc 50 26 29 3c e8 a1 c9 bc
       0.05502677 -0.008635275 0.010324076 -0.024613336
0001c0 94 e0 89 bd ec ea ae 3c a2 c1 4e bd 4c 3f 4f 3d
       -0.06732288 0.021352254 -0.05047763 0.050597474
0001d0 c0 1b 94 bb 0a 33 a8 bd 48 88 ad 3c d8 3f 34 bc
       -0.0045199096 -0.0821286 0.021183148 -0.01100155
0001e0 7c 93 eb bc 3c cd a4 3d 8d 71 44 bd de 6f b1 bd
       -0.02875685 0.08046958 -0.047959853 -0.08663915
0001f0 70 3a 3b 3c 94 6d d4 3c 8c d2 a8 bc 10 d1 a2 3d
       0.011427507 0.025931157 -0.02060821 0.07950032
000200 84 a8 10 3d 52 b1 81 3d ac 41 59 3d 68 a8 03 3c
       0.03531696 0.06332649 0.053041145 0.008035757
000210 08 fa 2b 3d 14 95 bd 3d 9c 73 78 bd e8 3a 5f 3d
       0.041986495 0.0925695 -0.06065713 0.054499537
000220 68 03 69 bc 3c eb 32 bd 76 0d 44 bd 05 f4 46 bd
       -0.0142220035 -0.04368137 -0.0478644 -0.04857256
000230 f0 7d 23 3c 48 04 f0 bc e8 3b 9c bc ca 48 44 bd
       0.009978756 -0.029298916 -0.019071534 -0.04792098
000240 38 a0 84 3c 98 9b 3b 3d f8 36 17 bc f8 5a d6 3c
       0.01618968 0.045802683 -0.009229414 0.026166424
000250 ec 74 90 3d 40 6b b4 3d e4 18 75 3d 08 ed 85 bc
       0.07053551 0.08809519 0.05983819 -0.016348377
000260 d0 33 92 3d 08 58 02 3c 30 1a d3 3b 7c 91 4e bd
       0.07138789 0.007955559 0.006442331 -0.050431713
000270 94 c8 b4 bc ec 91 83 3d 72 50 a7 3d 20 d2 89 bb
       -0.0220683 0.06424317 0.081696406 -0.004205957
000280 b0 e9 15 3c 46 3e 50 bd 00 af af 3b 00 ae c1 bd
       0.009149954 -0.05084064 0.005361438 -0.09457016
000290 3a 53 b0 3d 48 62 9c 3d e8 c9 03 3c fe b1 b3 bd
       0.08609624 0.07635933 0.008043744 -0.08774184
0002a0 48 1f e1 bc 40 6d b1 3a 08 0f 6d 3d 84 5a bc bd
       -0.027480736 0.0013536587 0.057875663 -0.09196952
0002b0 d0 31 a5 bb 32 f9 81 3d 00 df e4 3c 9f cd 78 bd
       -0.0050413385 0.06346358 0.027938366 -0.06074297
0002c0 13 34 90 bd fc 87 51 bd 30 68 84 bb 65 44 97 bd
       -0.07041182 -0.051155075 -0.0040407404 -0.07386092
0002d0 ec d4 67 bd 1e fa 86 bd 40 00 96 3b b0 26 b5 bc
       -0.056599542 -0.06590675 0.0045776665 -0.022113174
0002e0 7c f6 ab bd 1b 4f b1 bd 94 91 80 bc 52 64 a1 3d
       -0.083966225 -0.08657666 -0.015694417 0.07880463
0002f0 c5 17 98 bd e4 fb b1 3d 67 7a bc bd ec ba a9 bd
       -0.07426409 0.086906224 -0.09203034 -0.08287606
000300 a8 9e 29 bd 60 95 24 bd 28 a2 6f bd 27 13 7e bd
       -0.041411072 -0.040181518 -0.058504254 -0.062029984
000310 a4 c7 15 3d 00 0e ea bc b4 37 61 3d 08 63 32 3d
       0.036567345 -0.028571129 0.054984763 0.043551475
000320 66 12 8c bd d4 43 2c 3d 1e de 58 bd 98 67 01 3d
       -0.06839447 0.042056873 -0.052946202 0.031592935
000330 db 64 3e bd 6c 56 0f 3d 92 76 89 bd 82 71 92 3d
       -0.046482902 0.034994528 -0.067120686 0.07150556
000340 a8 13 ad bc 48 11 90 bc ab 26 40 bd 4c 19 87 3d
       -0.021127537 -0.017586365 -0.046911877 0.06596622
000350 20 0a a9 bb 6d b9 42 bd 60 fb 3d bc 88 34 91 3d
       -0.0051586777 -0.047540117 -0.011595577 0.07090098
000360 d0 e8 4e 3d a2 3a a2 bd 02 ea c0 3d 1a 57 79 bd
       0.050514996 -0.079213396 0.094196334 -0.060874082
000370 fd dd 4e bd 3a 64 bc 3d 0c ae d2 bc 90 af d5 bc
       -0.050504673 0.09198804 -0.025717758 -0.026084691
000380 f8 8b 3d 3c e8 c8 64 3c 1b cf bf bd 9c 60 9a bd
       0.011569016 0.013963915 -0.09365674 -0.07537958
000390 6a 48 9e 3d 10 5f a1 bc 30 38 11 3d 52 a5 a0 3d
       0.07728656 -0.01969865 0.035453975 0.07844032
0003a0 72 b7 c5 3d cf 75 54 bd 48 8c 28 bc 8a e5 85 bd
       0.0965413 -0.051870164 -0.010287352 -0.06537922
0003b0 28 30 1e 3c 44 50 f3 bc 95 44 91 bd d2 1b 82 3d
       0.009655036 -0.02970136 -0.07093159 0.063529626
0003c0 60 07 91 3d 84 13 d0 3c f9 4f 20 bd b0 69 95 bb
       0.07081485 0.02539993 -0.039138768 -0.004559718
0003d0 c0 1c 76 3b c2 c7 8b 3d 20 4a 69 3b 1c db 4d 3d
       0.0037553757 0.0682521 0.003559716 0.050257787
0003e0 d8 11 15 3d e0 c4 a9 3d 1c aa 5a 3d f4 68 94 bd
       0.03639397 0.08289504 0.053384885 -0.07246581
0003f0 b0 41 7e 3c 28 8a 9a 3d 20 ef 55 3b 4c 2a 4e 3d
       0.015518591 0.075458825 0.003264375 0.050333306

lstm.bias_ih_l1 f4 [512]
000000 5f 51 86 be 52 f7 51 be aa 83 63 be 60 f2 8a be
       -0.26233956 -0.20504501 -0.22218195 -0.27138042
000010 bb 86 7b be 55 99 23 be 5d e6 c3 be 8d fb 7a bd
       -0.24563114 -0.1597646 -0.3826169 -0.061275054
000020 0f 19 b2 be 96 2c 9a be ea 84 3a be 09 57 df be
       -0.34784743 -0.3011214 -0.18214765 -0.4362109
000030 1c 24 68 be 5a 29 48 be 89 8e 44 be 5b e1 fa bd
       -0.22670025 -0.19547024 -0.19194998 -0.122500144
000040 b9 7c 73 be f1 f7 50 be 6f 75 75 be 60 96 34 be
       -0.23778047 -0.20407082 -0.23970579 -0.17635489
000050 f3 68 9d be e7 89 9f be 8b 91 88 be 18 56 c5 be
       -0.30744132 -0.311599 -0.2667354 -0.38542247
000060 f0 1c bd be 6a 0b 80 be 86 d6 bb be 27 9c 78 be
       -0.3693614 -0.25008708 -0.36687106 -0.24278317
000070 25 87 97 be d8 19 a4 be 86 9e 7d be ce b3 93 be
       -0.29595295 -0.32050967 -0.24767503 -0.28848118
000080 37 ac 35 be bf dc e6 bd f0 6b 7f be e0 9a bf be
       -0.17741476 -0.11272573 -0.24943519 -0.37422848
000090 25 5e 85 be ef db 8a be 9d 9a 72 be c7 e2 67 be
       -0.2604839 -0.2712092 -0.23691793 -0.22645102
0000a0 18 b4 87 be 91 03 9e bd 6f 4b 8d be 5c 55 84 be
       -0.26504588 -0.07715524 -0.27596614 -0.25846374
0000b0 e7 4c ad bd 0a 61 5f be 23 a6 d5 bd bf c6 66 be
       -0.084619336 -0.21814361 -0.10432079 -0.22536753
0000c0 87 52 5b be c0 6c a1 be 8d 31 4b be e5 5c a7 be
       -0.214182 -0.31528282 -0.19843121 -0.3268806
0000d0 73 d0 a7 be 56 20 64 be 4a b1 4d be 58 eb 85 be
       -0.32776222 -0.2227796 -0.20087162 -0.26156116
0000e0 e8 cf 88 be c9 2e cd bd d8 92 3d be 80 61 1d be
       -0.2672112 -0.10018689 -0.18513048 -0.15369225
0000f0 54 62 53 be 22 c0 a5 be 54 f3 82 be 5a 04 89 be
       -0.20642978 -0.32373148 -0.2557627 -0.26761132
000100 d2 87 06 be f9 e7 9c be df 39 59 be 96 75 21 be
       -0.13137749 -0.3064573 -0.21213482 -0.15767512
000110 dc fb 52 be 2b 41 1e be 2c 3a a7 be 85 31 8a be
       -0.20603889 -0.15454547 -0.3266157 -0.26990905
000120 08 6b 7d be 21 6f 1a be 57 fa 95 be e7 0f 03 be
       -0.2474786 -0.15081455 -0.29292557 -0.12799035
000130 27 5b 4f be 80 fd 8d be 29 0e 73 be bc 97 2e be
       -0.20249616 -0.27732468 -0.2373587 -0.1705007
000140 b4 d5 10 be 96 66 2f be b6 3c df be 21 14 a5 be
       -0.14144021 -0.17128977 -0.43601006 -0.3224192
000150 bf 19 8f be d0 c0 82 be 85 8a 7d be 96 99 48 be
       -0.2794933 -0.2553773 -0.24759872 -0.19589838
000160 e3 65 2d be 6a 8e 04 be aa 41 93 be 02 c1 78 be
       -0.16933398 -0.12944952 -0.28761035 -0.24292377
000170 75 c5 46 be 4d 75 1e be 23 f3 b4 be df 55 83 be
       -0.19411261 -0.15474434 -0.3534175 -0.25651452
000180 29 9b c1 be 62 c4 1d be 62 31 0a be ea a0 40 be
       -0.3781369 -0.15406945 -0.134954 -0.18811384
000190 66 20 51 be f3 80 12 be c3 93 2b be a4 b0 fb be
       -0.20422515 -0.14307003 -0.16755585 -0.49158204
0001a0 f7 a4 45 be 4b eb a5 be fb ea 92 be 03 e5 99 be
       -0.1930121 -0.32406077 -0.286949 -0.30057535
0001b0 a5 78 8e be 3a 1a a8 be 26 97 78 be 9c 4b 9f be
       -0.2782642 -0.3283251 -0.24276409 -0.31112373
0001c0 38 1a a7 be 46 90 b4 be a5 f7 9c be 72 76 ae be
       -0.3263719 -0.35266322 -0.30657688 -0.34074742
0001d0 39 ed bb be 72 b4 69 be 02 83 34 be 57 51 61 be
       -0.36704424 -0.2282274 -0.176281 -0.22003685
0001e0 1e ff 0c be b8 da ab be 22 66 5c be e5 6a 4e be
       -0.13769194 -0.33565307 -0.21523336 -0.20157965
0001f0 11 fd a7 be 33 10 5b be 7d 83 a4 be 9c b6 1f be
       -0.32810262 -0.21392898 -0.32131568 -0.15597004
000200 00 00 00 00 00 00 00 00 00 00 00 00 00 00 00 00
       0.0 0.0 0.0 0.0
000210 00 00 00 00 00 00 00 00 00 00 00 00 00 00 00 00
       0.0 0.0 0.0 0.0
000220 00 00 00 00 00 00 00 00 00 00 00 00 00 00 00 00
       0.0 0.0 0.0 0.0
000230 00 00 00 00 00 00 00 00 00 00 00 00 00 00 00 00
       0.0 0.0 0.0 0.0
000240 00 00 00 00 00 00 00 00 00 00 00 00 00 00 00 00
       0.0 0.0 0.0 0.0
000250 00 00 00 00 00 00 00 00 00 00 00 00 00 00 00 00
       0.0 0.0 0.0 0.0
000260 00 00 00 00 00 00 00 00 00 00 00 00 00 00 00 00
       0.0 0.0 0.0 0.0
000270 00 00 00 00 00 00 00 00 00 00 00 00 00 00 00 00
       0.0 0.0 0.0 0.0
000280 00 00 00 00 00 00 00 00 00 00 00 00 00 00 00 00
       0.0 0.0 0.0 0.0
000290 00 00 00 00 00 00 00 00 00 00 00 00 00 00 00 00
       0.0 0.0 0.0 0.0
0002a0 00 00 00 00 00 00 00 00 00 00 00 00 00 00 00 00
       0.0 0.0 0.0 0.0
0002b0 00 00 00 00 00 00 00 00 00 00 00 00 00 00 00 00
       0.0 0.0 0.0 0.0
0002c0 00 00 00 00 00 00 00 00 00 00 00 00 00 00 00 00
       0.0 0.0 0.0 0.0
0002d0 00 00 00 00 00 00 00 00 00 00 00 00 00 00 00 00
       0.0 0.0 0.0 0.0
0002e0 00 00 00 00 00 00 00 00 00 00 00 00 00 00 00 00
       0.0 0.0 0.0 0.0
0002f0 00 00 00 00 00 00 00 00 00 00 00 00 00 00 00 00
       0.0 0.0 0.0 0.0
000300 00 00 00 00 00 00 00 00 00 00 00 00 00 00 00 00
       0.0 0.0 0.0 0.0
000310 00 00 00 00 00 00 00 00 00 00 00 00 00 00 00 00
       0.0 0.0 0.0 0.0
000320 00 00 00 00 00 00 00 00 00 00 00 00 00 00 00 00
       0.0 0.0 0.0 0.0
000330 00 00 00 00 00 00 00 00 00 00 00 00 00 00 00 00
       0.0 0.0 0.0 0.0
000340 00 00 00 00 00 00 00 00 00 00 00 00 00 00 00 00
       0.0 0.0 0.0 0.0
000350 00 00 00 00 00 00 00 00 00 00 00 00 00 00 00 00
       0.0 0.0 0.0 0.0
000360 00 00 00 00 00 00 00 00 00 00 00 00 00 00 00 00
       0.0 0.0 0.0 0.0
000370 00 00 00 00 00 00 00 00 00 00 00 00 00 00 00 00
       0.0 0.0 0.0 0.0
000380 00 00 00 00 00 00 00 00 00 00 00 00 00 00 00 00
       0.0 0.0 0.0 0.0
000390 00 00 00 00 00 00 00 00 00 00 00 00 00 00 00 00
       0.0 0.0 0.0 0.0
0003a0 00 00 00 00 00 00 00 00 00 00 00 00 00 00 00 00
       0.0 0.0 0.0 0.0
0003b0 00 00 00 00 00 00 00 00 00 00 00 00 00 00 00 00
       0.0 0.0 0.0 0.0
0003c0 00 00 00 00 00 00 00 00 00 00 00 00 00 00 00 00
       0.0 0.0 0.0 0.0
0003d0 00 00 00 00 00 00 00 00 00 00 00 00 00 00 00 00
       0.0 0.0 0.0 0.0
0003e0 00 00 00 00 00 00 00 00 00 00 00 00 00 00 00 00
       0.0 0.0 0.0 0.0
0003f0 00 00 00 00 00 00 00 00 00 00 00 00 00 00 00 00
       0.0 0.0 0.0 0.0
